model.pth (torch, 789583 bytes, 19 tensors)

weight f4 [32, 1, 3, 3]
1.3162837 -2.1271746 -0.92269397 0.8436419 0.6535938 -0.0525319 0.0577872 -1.8532355
1.219364 -1.1152105 -1.355803 0.17648783 -0.6348058 -1.5635229 1.3825961 -0.07245624
0.46919814 0.30309373 1.1944348 0.65883607 -0.981011 -1.0115063 0.77834123 -0.18685521
-0.41838795 1.1466172 -0.7823036 -0.80861676 -0.93021286 0.35804513 -0.30713916 0.42526007
0.8234132 -1.78486 -3.627527 0.07489512 0.25684172 1.7415344 -0.21698238 0.36308149
-0.034490988 -0.0920961 -0.26057732 1.4101777 0.6267999 -0.11517334 0.7955137 -2.6610613
0.07870812 0.4040333 0.30570957 0.8677555 0.69590807 1.2411317 1.5127239 0.6265707
0.36246368 -0.10888943 -0.8806747 0.5556974 -0.83796537 -1.4416165 1.2894912 0.5573102
2.4801283 0.16940853 -0.97036403 0.47491965 0.28417408 -0.09003529 -0.43367267 -0.44597834
-0.2636707 0.2115289 1.6307335 -0.0037097808 0.154556 0.10496321 1.4722588 -0.08842453
-0.024496382 -0.007993643 0.6527065 0.8220681 0.21409541 -2.3086827 -2.3535295 0.19096461
-0.58815753 1.163096 -1.256463 0.8710675 -0.5168336 0.28503862 -0.24473196 -2.4216971
0.3719266 1.3655578 -1.3398405 0.35832563 0.19618966 -1.6256614 -2.7966316 0.73141915
-0.3086748 -0.17140064 0.16322894 -1.5461329 0.018634051 -0.8216484 1.4219153 -1.3358728
0.24891225 -0.82171565 1.3275244 -0.1528259 -1.2282486 -0.22939855 0.034374535 0.42613515
0.2576272 1.2346315 -1.1824455 -0.8315749 -0.8901235 1.3624747 -2.3216717 0.25056046
-2.669506 -3.109835 0.22900711 0.0029759957 0.28681168 -0.3736699 0.41981807 1.5374445
-1.2881215 0.23740119 0.5287365 -1.9981755 0.15257818 -0.5877733 -1.6222872 0.6963326
-0.2875709 -0.008097598 -3.046762 0.74749494 1.2225711 0.58072144 -0.5355707 -0.8688434
0.16949336 1.3284488 -0.54823434 0.92961323 -0.6193121 0.18290673 0.27577296 -1.621592
0.014725405 0.0988227 -0.9712934 0.4579913 1.3614459 -0.39155883 -0.25728053 -1.1213974
-0.6639427 0.7656327 0.6776199 0.6747862 -0.8171952 0.27190378 0.58900434 0.39906752
0.7740195 0.14447781 0.7033951 -2.270626 0.68703175 0.15404762 -0.9993153 0.7627977
-0.1243929 -0.7366705 -1.1467444 1.1436182 -0.9812269 0.751742 0.84565747 -0.87481886
-1.452539 -0.81048256 -0.6052328 0.85088944 0.9595507 0.43764368 -0.2720191 0.24143107
-0.16378632 -1.3140106 0.15561105 -0.9159911 1.8058211 -1.043124 -0.5757248 0.6261153
-0.34766462 0.1483384 0.12396559 0.1684762 0.7022942 -3.0290103 0.110955894 -2.4307756
1.3564581 -0.24264498 -1.0585715 -1.7206888 -0.97805774 1.5125128 0.5832024 -0.8350521
-0.036822803 -0.73670465 0.5200708 0.7228212 0.55630183 -0.9765161 -0.018643197 1.2649548
0.1590406 0.7004167 -2.3630462 -0.06980201 0.091131866 0.95341015 0.7815742 -0.06716779
-0.014805665 0.99344206 0.4002176 -0.4353933 -0.19922738 -0.85984975 -0.24969958 0.5603483
0.37281233 1.4133275 0.64811856 -2.0352833 0.96077347 -1.2176055 0.9688271 -1.3007727
00000000: fc7b a83f a123 08c0 ac35 6cbf eaf8 573f
00000010: ec51 273f b12b 57bd 45b2 6c3d d236 edbf
00000020: 1f14 9c3f 38bf 8ebf f48a adbf 3ab9 343e
00000030: a282 22bf 8521 c8bf e9f8 b03f f063 94bd
00000040: bd3a f03e 1a2f 9b3e 3de3 983f 7ba9 283f
00000050: 8923 7bbf 0a79 81bf 5f41 473f f956 3fbe
00000060: f236 d6be 5ac4 923f 0c45 48bf 8201 4fbf
00000070: 6e22 6ebf b151 b73e 5841 9dbe b0bb d93e
00000080: 35cb 523f 4b76 e4bf 6729 68c0 9d62 993d
00000090: c280 833e 99ea de3f a130 5ebe d1e5 b93e
000000a0: 6c46 0dbd e19c bcbd 646a 85be b480 b43f
000000b0: f575 203f 00e0 ebbd c9a6 4b3f d44e 2ac0
000000c0: b931 a13d 74dd ce3e f785 9c3e 3925 5e3f
000000d0: 0827 323f 67dd 9e3f f0a0 c13f f066 203f
000000e0: d794 b93e 6c01 dfbd e673 61bf 2f42 0e3f
000000f0: e684 56bf e486 b8bf 0c0e a53f e2ab 0e3f
00000100: 6cba 1e40 6e79 2d3e c769 78bf ab28 f33e
00000110: 447f 913e 6c64 b8bd 580a debe 4657 e4be
00000120: d9ff 86be 089b 583e e0bb d03f cb1f 73bb
00000130: ee43 1e3e f4f6 d63d fa72 bc3f ec17 b5bd
00000140: a3ac c8bc c5f7 02bc c617 273f 0e73 523f
00000150: d43b 5b3e 75c1 13c0 3aa0 16c0 3a8c 433e
00000160: 7e91 16bf 54e0 943f c8d3 a0bf 48fe 5e3f
00000170: 354f 04bf 95f0 913e 049b 7abe 16fd 1ac0
00000180: 2a6d be3e 99ca ae3f e57f abbf 7576 b73e
00000190: f1e5 483e ac15 d0bf 03fc 32c0 493e 3b3f
000001a0: a00a 9ebe a683 2fbe 7d25 273e afe7 c5bf
000001b0: 70a6 983c 8d57 52bf 5201 b63f e1fd aabf
000001c0: dae2 7e3e f55b 52bf 52ec a93f 657e 1cbe
000001d0: 4037 9dbf 74e7 6abe 50cc 0c3d 632e da3e
000001e0: b6e7 833e 6808 9e3f 605a 97bf 18e2 54bf
000001f0: 22df 63bf 9265 ae3f 4596 14c0 7649 803e
00000200: 30d9 2ac0 8907 47c0 d780 6a3e ec08 433b
00000210: fbd8 923e a951 bfbe 65f2 d63e fbca c43f
00000220: 2ae1 a4bf 4c19 733e 465b 073f 37c4 ffbf
00000230: 743d 1c3e 5078 16bf 1ba7 cfbf da42 323f
00000240: 7e3c 93be caab 04bc 26fe 42c0 d45b 3f3f
00000250: 367d 9c3f 29aa 143f 291b 09bf 856c 5ebf
00000260: ab8f 2d3e 9c0a aa3f 1659 0cbf 22fb 6d3f
00000270: 3d8b 1ebf e74b 3b3e 1d32 8d3e 5490 cfbf
00000280: d342 713c 8e63 ca3d afa6 78bf d67d ea3e
00000290: dc43 ae3f 667a c8be 46ba 83be f389 8fbf
000002a0: 26f8 29bf 8100 443f 7f78 2d3f cabe 2c3f
000002b0: b433 51bf f936 8b3e fdc8 163f 9452 cc3e
000002c0: 2426 463f fef1 133e b411 343f f051 11c0
000002d0: 50e1 2f3f a9be 1d3e 21d3 7fbf b646 433f
000002e0: b4c1 febd 7096 3cbf 85c8 92bf 1562 923f
000002f0: b031 7bbf 2a72 403f 027d 583f 21f4 5fbf
00000300: ccec b9bf c97b 4fbf 89f0 1abf e4d3 593f
00000310: 1da5 753f d512 e03e 1646 8bbe b539 773e
00000320: 9ab7 27be 8031 a8bf 8158 1f3e 657e 6abf
00000330: 2525 e73f 1685 85bf b362 13bf 1849 203f
00000340: 1901 b2be 06e6 173e ace1 fd3d 0685 2c3e
00000350: 8dc9 333f 4edb 41c0 d83c e33d d491 1bc0
00000360: 6ba0 ad3f ed77 78be 457f 87bf 883f dcbf
00000370: fe61 7abf 059a c13f c14c 153f f9c5 55bf
00000380: 82d3 16bd ad98 3cbf 5c23 053f cf0a 393f
00000390: cc69 0e3f f6fc 79bf 9eb9 98bc 0aea a13f
000003a0: 8adb 223e 824e 333f 263c 17c0 5bf4 8ebd
000003b0: 58a3 ba3d b012 743f 3f15 483f 448f 89bd
000003c0: 7693 72bc 3852 7e3f 52e9 cc3e dfeb debe
000003d0: 4302 4cbe 1d1f 5cbf 3fb1 7fbe fc72 0f3f
000003e0: 42e1 be3e eae7 b43f 19eb 253f 1542 02c0
000003f0: 40f5 753f 7fda 9bbf 0e05 783f b87f a6bf

bias f4 [32]
-1.6541784 -1.2417978 -1.6449206 1.256221 -3.8009233 -2.6560168 -2.2454531 -3.7280173
-2.0572224 -0.12371997 -0.23244596 0.93186724 -1.486718 -1.3510107 1.5172535 -0.35898268
-0.5002741 -1.6138021 -1.1059561 -1.4600756 -1.011748 -1.4549814 -0.6904984 0.14142835
-1.3216393 -2.0636692 -2.333699 -1.4422946 -0.19650452 -0.08358256 -1.3204757 -1.09599
00000000: 1ebc d3bf 3bf3 9ebf c28c d2bf dacb a03f
00000010: 5442 73c0 2efc 29c0 81b5 0fc0 d697 6ec0
00000020: 88a9 03c0 e560 fdbd 5006 6ebe da8e 6e3f
00000030: c74c bebf ebed acbf 5d35 c23f 94cc b7be
00000040: f711 00bf 1191 cebf f88f 8dbf c2e3 babf
00000050: f580 81bf d53c babf 81c4 30bf 98d2 103e
00000060: 7a2b a9bf 2813 04c0 535b 15c0 1c9d b8bf
00000070: 7b38 49be 552d abbd 5905 a9bf 6649 8cbf

weight f4 [64, 32, 3, 3]
0.29401875 0.76610017 0.3445598 -0.2999507 -0.24635726 0.3141196 -0.102301896 0.12608498
0.2677074 -0.52804023 -0.38465574 0.29110944 -0.18894725 -0.42793423 0.1618566 0.3851261
-0.18346155 0.25248864 0.70367175 -0.07573506 -0.16382463 -0.5303642 0.06077525 -0.26356187
-0.09474222 -0.027102258 -0.5773242 -0.8655983 -0.15202823 -0.473062 -0.21401708 -1.2020295
0.2195994 0.72906786 -0.45492622 0.511261 -0.47972956 0.3205849 -0.5713914 0.117524624
-0.2601189 -0.045019776 0.2024894 0.18660876 0.08241572 -0.28908306 0.24007414 0.08857957
0.07532424 -1.0000864 -0.053413548 0.44467124 0.30668524 -0.13648978 0.35012928 0.3378681
0.15348475 -0.13069184 -0.84847885 -0.090640314 0.40765098 -0.39055073 0.83618724 0.7130767
-0.22000694 -0.23110428 -0.5867361 -0.22031271 -0.106320664 -0.31182578 -0.007583984 -0.22201738
0.045762442 -0.108893275 -0.7096407 0.3861122 -0.03774225 -0.5283078 -0.085450664 -0.24762753
-0.0045461203 -0.012764634 0.23186728 0.938425 -0.46158233 -0.02360278 0.49030152 -0.39701834
-0.21011215 0.14701062 0.017668467 0.29312885 -0.23044981 0.46859473 -0.4494748 -0.6658283
0.16197483 0.24060161 -0.5071459 0.69416326 -0.67361814 -0.3701137 -0.6132028 0.4979775
-0.38947102 0.5491044 -0.34578487 -0.8212417 -0.2629983 0.16936712 -0.22378394 -0.14830434
-0.17485788 -0.19548674 -0.29017714 -0.25183252 0.11275698 0.060849313 -0.17644762 0.3734789
-0.09126325 -0.20036684 0.24527133 -0.087979555 0.15158167 0.38376635 0.56370836 -0.58574426
-0.15367472 1.0309826 0.49864876 0.3088624 -0.76224566 -0.43748382 -0.89865905 0.5604958
-0.014295693 0.6239583 -0.33494547 -0.030567601 0.66008765 0.5896504 -0.12780757 0.49794784
0.42795503 0.3430879 -0.069275424 -0.22311811 -0.33657697 -0.0049081338 0.09307315 -0.48165184
-0.1909795 0.52641666 -0.02589099 -0.22562036 -0.41345698 -0.33651492 -0.22634873 0.10031166
0.041818824 0.021230051 -0.083107285 0.123338655 0.003025685 0.65679324 -0.48095268 -0.09413719
-0.10319285 -0.23275562 0.23879148 0.20043291 -0.067656055 0.070352525 -0.4361159 0.6067286
-0.01756725 -0.18388309 -0.39434445 -0.35664487 -0.19557379 -0.0028101655 -0.11970854 -0.0813986
0.16492881 -0.56184953 0.17591366 -0.034242805 -0.6713577 0.18440905 -0.18686011 0.076716594
-0.41560566 0.14314727 -0.19806424 -0.1009715 0.7734445 -0.29894882 -0.19804981 -0.15759975
0.11847388 -0.028450465 0.29065925 -0.19856393 0.021015886 0.44525677 -0.3438156 0.21464767
0.09212366 0.17588775 -0.48370856 -0.38720387 0.07745854 0.10199432 -0.3521857 -0.58131856
-0.25228453 -0.346684 0.4785973 0.29198945 -0.08011439 0.2129158 -0.63430893 0.18420711
0.48628604 -0.7480471 -0.10069736 -0.41409478 0.22455132 0.2919012 -0.111013696 0.42248458
-0.6092082 0.1178923 -0.00906469 0.03927151 -0.3613107 -0.1447523 -0.1933037 -0.30041197
0.5285995 -0.39839584 0.20564681 0.21368352 -0.22336574 -0.19213903 0.046892527 0.118295446
-0.33095804 0.1526896 0.2856089 -0.49161464 -0.046872053 -0.14332001 0.23604794 -0.82152903
00000000: a089 963e 241f 443f 246a b03e 2393 99be
00000010: 1445 7cbe 49d4 a03e a883 d1bd 6c1c 013e
00000020: f210 893e a52d 07bf 99f1 c4be 4c0c 953e
00000030: 637b 41be 321a dbbe bdbd 253e 402f c53e
00000040: 58dd 3bbe 3146 813e d523 343f fc1a 9bbd
00000050: a5c1 27be f3c5 07bf 78ef 783d 95f1 86be
00000060: 3608 c2bd 8e05 debc 85cb 13bf da97 5dbf
00000070: 4aad 1bbe 2f35 f2be 4b27 5bbe 1adc 99bf
00000080: aade 603e 31a4 3a3f 17ec e8be 00e2 023f
00000090: 1d9f f5be b423 a43e b546 12bf c0b0 f03d
000000a0: 4e2e 85be a866 38bd 6259 4f3e 5e16 3f3e
000000b0: 93c9 a83d b202 94be ffd5 753e 3569 b53d
000000c0: 9843 9a3d d502 80bf 2ac8 5abd f3ab e33e
000000d0: d905 9d3e fac3 0bbe 2544 b33e 0cfd ac3e
000000e0: 1b2b 1d3e 15d4 05be e935 59bf a1a1 b9bd
000000f0: a1b7 d03e 44f6 c7be 5e10 563f 328c 363f
00000100: 8049 61be 9aa6 6cbe 5634 16bf a899 61be
00000110: a6be d9bd a1a7 9fbe 1283 f8bb 8658 63be
00000120: 6671 3b3d 7003 dfbd 03ab 35bf 80b0 c53e
00000130: 9e97 1abd 2e3f 07bf c200 afbd 1292 7dbe
00000140: 9ff7 94bb c122 51bc 9e6e 6d3e 9f3c 703f
00000150: 8554 ecbe 9e5a c1bc cd08 fb3e fd45 cbbe
00000160: a427 57be f489 163e 76bd 903c fc14 963e
00000170: 09fb 6bbe a6eb ef3e 9021 e6be b973 2abf
00000180: bbdc 253e 4560 763e 50d4 01bf afb4 313f
00000190: 3d72 2cbf 8b7f bdbe dcfa 1cbf e8f6 fe3e
000001a0: bf68 c7be 1b92 0c3f b70a b1be e53c 52bf
000001b0: b7a7 86be 936e 2d3e 9e27 65be 18dd 17be
000001c0: f20d 33be ad2d 48be 1992 94be 31f0 80be
000001d0: 22ed e63d 213d 793d afae 34be a038 bf3e
000001e0: 3ae8 babd f72c 4dbe 6828 7b3e a02e b4bd
000001f0: 3a38 1b3e 067d c43e 314f 103f 56f3 15bf
00000200: e85c 1dbe 3df7 833f e44e ff3e 3623 9e3e
00000210: 8822 43bf e1fd dfbe 850e 66bf a77c 0f3f
00000220: 7b38 6abc bbbb 1f3f f97d abbe e868 fabc
00000230: 81fb 283f 54f3 163f fddf 02be 05f3 fe3e
00000240: ec1c db3e 38a9 af3e 46e0 8dbd 1379 64be
00000250: d153 acbe 69d4 a0bb 239d be3d 129b f6be
00000260: 2190 43be 3ec3 063f 5719 d4bc 0609 67be
00000270: a2b0 d3be af4b acbe f6c7 67be 3370 cd3d
00000280: 374a 2b3d a5ea ad3c 2734 aabd fa98 fc3d
00000290: 924a 463b 9a23 283f 6e3f f6be 00cb c0bd
000002a0: c656 d3bd 7d57 6ebe c185 743e 493e 4d3e
000002b0: 428f 8abd fc14 903d 954a dfbe 9152 1b3f
000002c0: 32e9 8fbc d94b 3cbe 84e7 c9be 289a b6be
000002d0: 7f44 48be c12a 38bb c029 f5bd 4fb4 a6bd
000002e0: 19e3 283e 5fd5 0fbf b622 343e 2f42 0cbd
000002f0: 19de 2bbf bad5 3c3e 4258 3fbe 971d 9d3d
00000300: 44ca d4be 3395 123e 5ad1 4abe 25ca cebd
00000310: 7500 463f d20f 99be 92cd 4abe d461 21be
00000320: 6fa2 f23d f310 e9bc 4ad1 943e 5854 4bbe
00000330: 8229 ac3c b2f8 e33e 9908 b0be 99cc 5b3e
00000340: 54ab bc3d eb1b 343e a6a8 f7be 963f c6be
00000350: 95a2 9e3d 66e2 d03d af51 b4be 4bd1 14bf
00000360: 702b 81be 9180 b1be b50a f53e a47f 953e
00000370: 0313 a4bd 9906 5a3e 1262 22bf caa0 3c3e
00000380: 7cfa f83e 0480 3fbf 6b3a cebd 3b04 d4be
00000390: c8f0 653e 1374 953e 265b e3bd e64f d83e
000003a0: 12f5 1bbf 8571 f13d 1184 14bc 2adb 203d
000003b0: b7fd b8be f239 14be 68f1 45be 99cf 99be
000003c0: 4c52 073f 8afa cbbe 1495 523e dacf 5a3e
000003d0: fdb9 64be 18c0 44be 6112 403d e244 f23d
000003e0: 5573 a9be aa5a 1c3e 543b 923e eab4 fbbe
000003f0: e9fc 3fbd 7bc2 12be 8db6 713e ba4f 52bf

bias f4 [64]
-0.43725315 0.27664176 0.050083485 -0.6589179 -0.8087535 -0.28343362 -0.8408891 0.006131372
0.5417448 0.32198304 -0.2780884 -0.60346913 -0.52298665 -0.7725305 -0.5123496 -0.45655954
-0.56036115 -0.43319756 -0.39149645 -0.45080826 0.17962882 -0.17729561 -0.94070876 -0.4557777
-0.096638165 0.28466243 0.057062875 -0.10331519 -0.34933984 0.65875536 -0.17893387 -0.20459622
-0.73674065 -0.3013881 -0.0075316047 -0.28970894 -0.37310013 -0.5875761 -0.57437766 -0.26629218
-0.38668975 -0.13503829 0.10703591 -0.1479652 -1.041397 0.92821205 1.0868509 -0.90730685
-0.017717384 -0.8262727 -0.69714856 -0.46732655 -0.7638051 -0.46318233 0.28293484 -0.0017581851
-0.4634528 -0.40359908 -0.39870644 -0.27817023 -0.60501295 0.14621636 -0.485082 -0.7191386
00000000: a5df dfbe fda3 8d3e 5724 4d3d d8ae 28bf
00000010: 780a 4fbf 361e 91be 8244 57bf ade9 c83b
00000020: caaf 0a3f f6da a43e 9a61 8ebe f47c 1abf
00000030: 74e2 05bf 8fc4 45bf 5829 03bf 2cc2 e9be
00000040: d473 0fbf 12cc ddbe 3972 c8be 57d0 e6be
00000050: 9ef0 373e fb8c 35be 4ad2 70bf b25b e9be
00000060: 3bea c5bd 46bf 913e c3ba 693d ea96 d3bd
00000070: acdc b2be 31a4 283f 713a 37be ac81 51be
00000080: 099b 3cbf 8b4f 9abe aecb f6bb bb54 94be
00000090: fb06 bfbe 636b 16bf 6a0a 13bf 7357 88be
000000a0: 33fc c5be 7a47 0abe a535 db3d 3084 17be
000000b0: 7f4c 85bf 4e9f 6d3f ee1d 8b3f 4345 68bf
000000c0: 0c24 91bc 9c86 53bf 5478 32bf 6d45 efbe
000000d0: bb88 43bf 3c26 edbe d6dc 903e e772 e6ba
000000e0: af49 edbe 8aa4 cebe 4023 ccbe 546c 8ebe
000000f0: 21e2 1abf beb9 153e ab5c f8be 7819 38bf

weight f4 [128, 64, 3, 3]
-0.24011162 0.14075254 -0.20175248 0.028909167 -0.092503205 0.6315829 -0.28683746 -0.19349894
-0.029337833 0.041914728 0.26425514 -0.26652732 -0.25403014 -0.19208878 0.026040364 0.12792432
0.30041227 -0.09932467 0.17967652 -0.2164764 -0.4107554 -0.068837054 -0.20345703 0.005419047
-0.18029478 -0.19073182 0.10388995 0.26285863 -0.30582443 0.12416907 -0.16576214 0.11343293
0.2703355 0.10914039 0.18296824 -0.12378893 0.23221573 0.39497846 0.34193975 -0.21336764
-0.5013474 -0.33365002 -0.35313925 -0.38425484 0.028400626 0.13572049 -0.32437393 0.34204808
-0.21004502 0.050322216 0.0076734573 0.44335374 0.126147 0.26455587 -0.0052446206 -0.13778877
0.07848445 -0.16713247 0.39896697 0.12709889 -0.18979043 -0.44004995 0.2621008 0.018117042
0.043973554 0.46375197 -0.11651825 -0.051785633 -0.38725993 0.23795627 -0.4199994 -0.07927644
-0.2001627 0.2093429 -0.06796463 -0.48523167 -0.4024461 -0.16706303 0.24310397 -0.18127473
0.47437304 -0.15221761 0.45088175 -0.07711701 0.24747953 0.067693315 -0.2225579 -0.2731964
-0.4080095 0.113854654 0.0015959982 -0.076608256 0.2514386 0.27488697 -0.4200766 0.032422673
-0.1388639 0.1463015 -0.16564704 0.2774336 0.08109295 -0.1791854 0.0120524345 -0.050865598
0.13799025 -0.0026992674 -0.06381211 0.23063911 -0.07153745 -0.37837362 -0.023413073 0.2568963
-0.051481552 -0.026469972 -0.11799646 -0.22621197 0.31292078 0.5104598 -0.10059828 -0.4692996
0.173353 -0.113520935 0.26853523 0.16238353 0.57002336 -0.17353651 -0.26408777 -0.29164052
0.04382517 0.058664683 -0.18850206 -0.15199599 0.3195721 -0.32102218 0.0652319 0.044259343
0.06406023 0.31438544 -0.25135306 -0.32521078 -0.0773191 -0.04085487 -0.28461447 0.048081964
-0.2655091 0.16092613 0.25221366 -0.2904743 -0.20847926 0.06413187 -0.28363946 -0.10924366
-0.32555902 -0.13211301 0.28189427 -0.4797963 -0.19550472 -0.37288716 -0.48438898 -0.15416308
0.10763352 0.12947232 0.028514668 -0.071627825 -0.3471266 -0.0022773128 0.060448308 -0.021531038
-0.35786885 0.37929398 -0.24222441 -0.03444759 -0.06254475 -0.08695833 -0.39069164 -0.11650987
-0.026302984 0.0915076 -0.20123634 -0.026014779 0.1625012 -0.40725592 -0.2161069 0.036420666
0.010043587 -0.22820617 0.048730627 0.4644497 0.016638905 -0.40200227 0.06728364 -0.113122016
-0.363598 -0.07401026 0.4163382 -0.010279309 0.00959793 -0.5989213 -0.2120736 -0.37136713
-0.30734983 0.085071415 -0.38344893 -0.03195258 -0.03681457 0.3473607 0.33747962 -0.16463843
-0.17773637 0.1871155 -0.073367156 -0.20869766 0.24391459 -0.3223668 0.012851042 -0.41159105
-0.059215557 0.073471814 0.38852614 -0.093676254 -0.14917445 -0.5518906 0.0688457 -0.2543729
-0.26961386 0.12129602 -0.32136062 -0.52142185 -0.020986816 -0.24323457 0.14920169 -0.12951294
-0.3065148 0.4164283 -0.39003336 0.16367504 -0.009723237 -0.52797115 -0.088886715 0.41455263
0.05819265 -0.19081154 -0.3773231 -0.117824145 0.1299177 -0.1863186 -0.41164756 -0.29800034
0.07536554 -0.30963868 0.17750941 0.17587826 0.17993283 -0.01923843 0.076404385 0.23717543
00000000: d2df 75be 6f21 103e 3498 4ebe ebd2 ec3c
00000010: 5272 bdbd 6baf 213f 5cdc 92be 9624 46be
00000020: e555 f0bc c7ae 2b3d 734c 873e 4576 88be
00000030: 3d10 82be ecb2 44be 9a52 d53c 98fe 023e
00000040: a3cf 993e bc6a cbbd 1ffd 373e fdab 5dbe
00000050: 884e d2be 71fa 8cbd 0a57 50be 4392 b13b
00000060: 329f 38be 344f 43be 41c4 d43d 6895 863e
00000070: 0595 9cbe 5a4c fe3d 8dbd 29be 864f e83d
00000080: 6a69 8a3e ff84 df3d 075c 3b3e 0d85 fdbd
00000090: f6c9 6d3e 9e3a ca3e ba12 af3e 0c7d 5abe
000000a0: 4e58 00bf 2dd4 aabe abce b4be 0dbd c4be
000000b0: 6ea8 e83c 50fa 0a3e 5714 a6be ed20 af3e
000000c0: 0b16 57be ab1e 4e3d a071 fb3b 43ff e23e
000000d0: ae2c 013e de73 873e 11db abbb 8018 0dbe
000000e0: 75bc a03d c624 2bbe 6645 cc3e 3626 023e
000000f0: 6c58 42be 3a4e e1be 1332 863e 316a 943c
00000100: 9d1d 343d e670 ed3e 1fa1 eebd 2c1d 54bd
00000110: ef46 c6be cfaa 733e 290a d7be b05b a2bd
00000120: 73f7 4cbe fc5d 563e 0a31 8bbd 4970 f8be
00000130: 6a0d cebe 9212 2bbe 3ff0 783e 15a0 39be
00000140: 06e1 f23e efde 1bbe f9d9 e63e 86ef 9dbd
00000150: 466b 7d3e cba2 8a3d 38e6 63be 66e0 8bbe
00000160: 9fe6 d0be a12c e93d d030 d13a cae4 9cbd
00000170: 8fbc 803e fcbd 8c3e 4814 d7be a3cd 043d
00000180: 5732 0ebe 0fd0 153e 619f 29be c70b 8e3e
00000190: 1014 a63d 617c 37be 9377 453c 7258 50bd
000001a0: 514d 0d3e 31e6 30bb ecaf 82bd a92c 6c3e
000001b0: 3a82 92bd 30ba c1be c6cc bfbc e987 833e
000001c0: 52de 52bd 8ed7 d8bc 21a8 f1bd 1ca4 67be
000001d0: 2737 a03e 7ead 023f 7906 cebd 0a48 f0be
000001e0: 7383 313e aa7d e8bd 737d 893e de47 263e
000001f0: 0ded 113f 8eb3 31be 8336 87be e851 95be
00000200: 0582 333d 614a 703d af06 41be d6a4 1bbe
00000210: f49e a33e 055d a4be 4d98 853d 4949 353d
00000220: 0332 833d 21f7 a03e 59b1 80be 0782 a6be
00000230: 7a59 9ebd 7057 27bd fdb8 91be 98f1 443d
00000240: cff0 87be d2c9 243e 2622 813e 0cb9 94be
00000250: 967b 55be 9257 833d 3139 91be 24bb dfbd
00000260: acaf a6be a248 07be 7254 903e dca7 f5be
00000270: 6432 48be 11eb bebe d501 f8be eddc 1dbe
00000280: f76e dc3d 6494 043e 9897 e93c 9cb1 92bd
00000290: 94ba b1be f83e 15bb a598 773d dc61 b0bc
000002a0: 963a b7be d232 c23e ad09 78be eb18 0dbd
000002b0: 7617 80bd 3517 b2bd bc08 c8be ba9c eebd
000002c0: 5b79 d7bc 5668 bb3d e610 4ebe f21c d5bc
000002d0: b766 263e d983 d0be 214b 5dbe d62d 153d
000002e0: db8d 243c e1ae 69be c499 473d 5acc ed3e
000002f0: 504e 883c 3ed3 cdbe 01cc 893d 84ac e7bd
00000300: 8429 babe b192 97bd 482a d53e 8c6a 28bc
00000310: a340 1d3c e852 19bf d229 59be d523 bebe
00000320: f55c 9dbe ec39 ae3d 6b53 c4be b5e0 02bd
00000330: e0ca 16bd 43d9 b13e 21ca ac3e fa96 28be
00000340: 8600 36be 359b 3f3e 8541 96bd d7b4 55be
00000350: bfc4 793e 430d a5be 2d8d 523c 10bc d2be
00000360: 038c 72bd 6478 963d e6ec c63e 56d9 bfbd
00000370: 30c1 18be b448 0dbf f9fe 8c3d 2a3d 82be
00000380: d40a 8abe 0c6a f83d 6189 a4be e77b 05bf
00000390: 8bec abbc 7c12 79be 54c8 183e 0a9f 04be
000003a0: 82ef 9cbe 1736 d53e 74b2 c7be 6e9a 273e
000003b0: 364e 1fbc 1e29 07bf 3d0a b6bd 3e40 d43e
000003c0: 6b5b 6e3d 1a64 43be 7e30 c1be c94d f1bd
000003d0: 2509 053e 4eca 3ebe 78c3 d2be 8093 98be
000003e0: 4059 9a3d f688 9ebe 07c5 353e 6e19 343e
000003f0: 5040 383e e999 9dbc e779 9c3d 1ede 723e

bias f4 [128]
-0.737986 -0.6819271 -1.0599875 0.22530438 -0.4978377 -0.29564953 -0.21805815 -0.53287494
-0.6851688 -0.5259662 -0.7019714 0.15252478 -1.0587415 -0.7329528 -0.5308779 -0.011794669
-0.52379215 -0.14482343 -0.10021203 -0.5311221 -0.9363306 -0.83386 -0.5676485 -0.07336021
-0.27032152 -0.6933495 -0.63747644 -1.2041183 -0.12824802 -0.5980459 -0.6729145 -0.47125015
-0.06936562 -0.9607043 -0.55612177 -0.43227243 -0.9654514 -0.35417366 -0.7524203 -0.66535723
-0.52586323 -0.6517886 -0.1679045 -0.6847385 -0.17671171 -0.12112636 -0.3283737 -0.4471416
-0.554369 -0.5127376 -0.47193223 -0.60820836 -0.9677044 -0.24461983 0.08704628 -0.44946846
-1.0536516 -0.4689969 -0.45374927 0.03526681 -0.41801554 -1.0987741 -0.24453484 -0.4987166
-0.64911103 -0.86612535 -0.34133413 -0.15621755 -0.33339667 -0.06569725 -0.6474948 -0.88752466
0.37582046 -0.26611322 -0.32749414 -0.040958267 -0.25211158 0.0737386 -0.56939036 -0.63876754
0.06652148 0.46192378 -0.4229848 0.18229707 -0.5193939 -0.6222232 -0.70727503 -1.167798
-0.62966627 0.29111215 -0.58056533 -0.9155848 -0.28907314 -0.22929901 -0.7196648 -0.6634425
-0.469311 -0.98446697 -0.3420191 -0.23887734 -1.4501289 -0.47743303 0.46109593 -0.6071135
-0.49300504 -0.28134272 -0.8473895 -0.25920045 -0.33939052 -0.62196153 -0.085780784 -1.1329962
-0.22184071 -0.48584342 -0.4069455 -0.48473224 -0.7555588 0.00026906212 -0.42022988 -0.3879083
-0.7088542 -1.00881 0.12624022 -0.75138175 0.3858574 -0.8040347 -0.56660604 -0.26004264
00000000: a7ec 3cbf c692 2ebf acad 87bf 31b6 663e
00000010: 95e4 febe 605f 97be a34a 5fbe 7e6a 08bf
00000020: 3967 2fbf b9a5 06bf 66b4 33bf 752f 1c3e
00000030: d784 87bf cba2 3bbf 9de7 07bf 6d3e 41bc
00000040: 3e17 06bf 984c 14be f73b cdbd 9ef7 07bf
00000050: 5db3 6fbf d977 55bf 6951 11bf e13d 96bd
00000060: 9567 8abe 5a7f 31bf a831 23bf 8c20 9abf
00000070: 7353 03be 8919 19bf 2044 2cbf b347 f1be
00000080: 900f 8ebd b8f0 75bf ff5d 0ebf d052 ddbe
00000090: d327 77bf 4056 b5be 9e9e 40bf da54 2abf
000000a0: f99e 06bf 9edb 26bf 28ef 2bbe 064b 2fbf
000000b0: eaf3 34be 1911 f8bd 9920 a8be beef e4be
000000c0: 20eb 0dbf c542 03bf 1aa1 f1be 8bb3 1bbf
000000d0: 7abb 77bf 9f7d 7abe 5245 b23d bb20 e6be
000000e0: 0ede 86bf 5d20 f0be d351 e8be ee73 103d
000000f0: 2206 d6be a1a4 8cbf 5767 7abe c857 ffbe
00000100: 242c 26bf 64ba 5dbf 59c3 aebe 7ef7 1fbe
00000110: f8b2 aabe 488c 86bd 38c2 25bf d134 63bf
00000120: 8a6b c03e fe3f 88be 50ad a7be dbc3 27bd
00000130: c514 81be 4304 973d 91c3 11bf 4586 23bf
00000140: 6a3c 883d 4681 ec3e 7791 d8be 15ac 3a3e
00000150: 00f7 04bf 054a 1fbf fa0f 35bf 687a 95bf
00000160: cf31 21bf a70c 953e ee9f 14bf c463 6abf
00000170: 6501 94be 5ccd 6abe f43b 38bf 5ed7 29bf
00000180: 8849 f0be 0706 7cbf 211d afbe 439c 74be
00000190: d39d b9bf 1a72 f4be c414 ec3e ca6b 1bbf
000001a0: 286b fcbe 270c 90be 85ee 58bf ecb5 84be
000001b0: 98c4 adbe df38 1fbf d6ad afbd 0506 91bf
000001c0: 362a 63be 78c0 f8be 295b d0be d32e f8be
000001d0: 4d6c 41bf e810 8d39 5f28 d7be eb9b c6be
000001e0: 7877 35bf b020 81bf 1e45 013e 8e5a 40bf
000001f0: 1a8f c53e 38d5 4dbf 180d 11bf 4f24 85be

weight f4 [64, 128, 3, 3]
0.2799224 -0.1784607 -0.04828207 0.22301404 0.13111453 -0.22048795 -0.27202877 -0.08184107
0.041152816 -0.49800012 -0.5269339 -0.18826878 -0.16856688 -0.2042121 0.26375186 -0.38135707
-0.19999936 -0.08076719 0.3603781 0.082922354 0.09732222 -0.50057834 0.14090315 -0.2617581
-0.13133708 0.01896664 -0.2788238 -0.33081257 0.15962912 0.20005561 -0.54651934 0.2973538
0.05083465 -0.16824122 0.080236584 -0.49232808 0.06670538 -0.23917474 -0.11869298 -0.35667643
-0.1627014 0.10680215 -0.23341328 -0.3065228 0.038880516 -0.12694295 -0.24536678 0.45672178
-0.03850161 -0.14934406 0.1473996 0.049457017 0.0077400766 -0.42763007 -0.45387116 -0.4509694
-0.03932369 0.12660448 -0.010278774 -0.3055023 -0.44949546 -0.15974875 -0.17721628 -0.14442942
0.24203584 -0.0075703654 0.22716694 0.073569834 0.013406301 -0.25020716 -0.24576366 0.3182403
0.2774154 0.012152397 -0.18057324 -0.06983773 -0.20478944 -0.27969587 0.27051613 -0.020828295
-0.1680114 0.17003538 -0.48773018 -0.18134482 0.3067474 0.08808101 -0.25859192 -0.032885116
-0.32244712 -0.20332552 0.013536048 0.08100193 -0.041212466 -0.101308994 0.045302782 -0.11842801
0.18139525 0.39490473 0.22127669 -0.16269352 -0.20773382 0.1595477 0.32134044 -0.10029793
0.17059767 -0.27856502 0.20631506 0.018952304 -0.33692914 0.10495722 0.14453657 0.05964403
-0.3821206 0.13565929 -0.39612487 -0.40144652 -0.34770194 -0.5392758 0.13551363 -0.20006613
-0.045351956 -0.09823825 0.43821776 0.23664322 -0.40445337 -0.20421563 0.010256428 0.2097456
0.6041658 -0.07969489 0.10342922 -0.030823234 -0.0884704 0.18002917 0.23732328 0.124496736
0.3608259 0.21586536 -0.30921432 -0.5115223 -0.14411303 -0.007079741 0.19443476 -0.3049569
-0.41848862 -0.075197436 -0.13050891 -0.3586825 -0.43502203 -0.10606007 -0.3207486 -0.0014957885
-0.1508997 -0.3524093 -0.2092389 -0.103825204 -0.1990052 -0.09612992 0.10690583 -0.36749533
-0.050038353 -0.15103038 0.17783572 0.24128886 -0.0237092 -0.003912687 0.29930604 -0.36962128
0.02746681 -0.38489085 0.05949275 -0.20360601 -0.37179968 -0.15643069 -0.08471283 -0.22202627
-0.28861782 0.07276354 -0.13690165 -0.1569453 0.19764204 -0.17326449 -0.25373766 -0.4600601
-0.0067535373 0.34942082 -0.21468547 0.10010698 -0.39974913 0.34134558 -0.013823125 0.02085917
-0.2698115 -0.4104965 0.17596012 0.39928526 -0.2026755 0.17502984 -0.37056455 0.17661732
-0.30317485 0.15488042 0.030042747 0.4030441 0.019094832 -0.1934314 -0.5038617 0.059864413
0.47251186 0.1367319 0.085388236 0.03084726 0.22790517 -0.06888089 0.2801725 -0.061457355
0.156459 0.40811437 0.2860645 -0.14875928 -0.30199262 0.1595788 -0.32571632 0.171668
-0.15160477 -0.25169775 0.036527794 0.3823026 -0.29499045 0.09072632 -0.036059514 0.0428909
0.21309018 -0.011842152 -0.079246424 -0.54601645 -0.040860336 -0.42244038 0.1416404 0.17825013
0.23701167 -0.28357553 0.017090328 0.029240657 -0.09650188 0.08250603 -0.16214538 -0.14794427
-0.33143005 0.06913859 -0.41624326 -0.090303786 -0.2201868 0.039058674 -0.45036456 -0.073916264
00000000: fd51 8f3e 67be 36be 6bc3 45bd cb5d 643e
00000010: e342 063e 98c7 61be 5b47 8bbe 4a9c a7bd
00000020: db8f 283d dff9 febe 24e5 06bf 88c9 40be
00000030: cc9c 2cbe fa1c 51be 7c0a 873e 3c41 c3be
00000040: a2cc 4cbe 4569 a5bd 7a83 b83e 32d3 a93d
00000050: df50 c73d e725 00bf ea48 103e 2805 86be
00000060: 3a7d 06be ed5f 9b3c fec1 8ebe 4460 a9be
00000070: d175 233e 61db 4c3e b1e8 0bbf c23e 983e
00000080: fe37 503d 6d47 2cbe 1453 a43d 6d12 fcbe
00000090: d59c 883d 39ea 74be 4e15 f3bd 4b9e b6be
000000a0: 329b 26be 16bb da3d e403 6fbe 8ef0 9cbe
000000b0: 2d41 1f3d 55fd 01be 6e41 7bbe 70d7 e93e
000000c0: ddb3 1dbd a6ed 18be ecef 163e 7193 4a3d
000000d0: 78a0 fd3b 54f2 dabe cd61 e8be 76e5 e6be
000000e0: e111 21bd 9ba4 013e 4e68 28bc cc6a 9cbe
000000f0: 4524 e6be 2d95 23be 2f78 35be 4ee5 13be
00000100: 3ed8 773e d410 f8bb 739e 683e c8ab 963d
00000110: 1aa6 5b3c 271b 80be 78a9 7bbe 65f0 a23e
00000120: 6409 8e3e d91a 473c 31e8 38be 1507 8fbd
00000130: 53b4 51be 4c34 8fbe 1781 8a3e 1aa0 aabc
00000140: 2e0b 2cbe c11d 2e3e c5b7 f9be 75b2 39be
00000150: ff0d 9d3e d163 b43d 2966 84be 8bb2 06bd
00000160: ca17 a5be 9134 50be 4dc6 5d3c 57e4 a53d
00000170: 67ce 28bd 177b cfbd 698f 393d 628a f2bd
00000180: adbf 393e f430 ca3e 5b96 623e 2199 26be
00000190: 2db8 54be 7960 233e bc86 a43e 0069 cdbd
000001a0: 28b1 2e3e 13a0 8ebe 4144 533e dd41 9b3c
000001b0: fa81 acbe d0f3 d63d 6501 143e 4c4d 743d
000001c0: 50a5 c3be 45ea 0a3e e1d0 cabe 668a cdbe
000001d0: fd05 b2be fb0d 0abf 16c4 0a3e 23de 4cbe
000001e0: f9c2 39bd 2331 c9bd 145e e03e 9a52 723e
000001f0: 8314 cfbe e71d 51be 940a 283c 8dc7 563e
00000200: 9caa 1a3f 1337 a3bd b3d2 d33d 0281 fcbc
00000210: f82f b5bd 9159 383e e004 733e 25f8 fe3d
00000220: 2cbe b83e cf0b 5d3e 5751 9ebe 20f3 02bf
00000230: 5e92 13be 2cfd e7bb e819 473e 5023 9cbe
00000240: 2444 d6be 1d01 9abd 21a4 05be 3ca5 b7be
00000250: 35bb debe 0636 d9bd 2939 a4be 550e c4ba
00000260: 7385 1abe fe6e b4be b942 56be 4fa2 d4bd
00000270: 05c8 4bbe c3df c4bd 72f1 da3d 5928 bcbe
00000280: 04f5 4cbd b5a7 1abe 911a 363e 6d14 773e
00000290: cc39 c2bc ff35 80bb a43e 993e 003f bdbe
000002a0: 1302 e13c 6a10 c5be abae 733d 187e 50be
000002b0: 875c bebe 5e2f 20be ec7d adbd db5a 63be
000002c0: b7c5 93be 0d05 953d f22f 0cbe 45b6 20be
000002d0: ad62 4a3e 3f6c 31be e7e9 81be ff8c ebbe
000002e0: c74c ddbb 49e7 b23e 82d6 5bbe e304 cd3d
000002f0: ebab ccbe d9c4 ae3e 637a 62bc dae0 aa3c
00000300: bc24 8abe 992c d2be e42e 343e 1e6f cc3e
00000310: 2b8a 4fbe 063b 333e a3ba bdbe 2cdb 343e
00000320: bc39 9bbe f998 1e3e 351c f63c cc5b ce3e
00000330: c46c 9c3c e212 46be 15fd 00bf 6334 753d
00000340: 13ed f13e 7203 0c3e 07e0 ae3d 65b3 fc3c
00000350: f95f 693e 6d11 8dbd c572 8f3e b5ba 7bbd
00000360: ca36 203e 5ef4 d03e 0c77 923e 5a54 18be
00000370: c79e 9abe a068 233e 4ac4 a6be bcc9 2f3e
00000380: 483e 1bbe 87de 80be 2b9e 153d 2bbd c33e
00000390: fd08 97be b9ce b93d 24b3 13bd 5eae 2f3d
000003a0: 5034 5a3e 9605 42bc f34b a2bd bcc7 0bbf
000003b0: 2b5d 27bd 1b4a d8be 2e0a 113e 3487 363e
000003c0: 30b3 723e d030 91be 0401 8c3c 1a8a ef3c
000003d0: c7a2 c5bd ecf8 a83d 7009 26be b47e 17be
000003e0: 33b1 a9be 8898 8d3d d61d d5be 31f1 b8bd
000003f0: a678 61be fdfb 1f3d 2f96 e6be 6961 97bd

bias f4 [64]
-0.38979247 -0.5814771 -1.0854514 -0.64185095 -0.969591 0.263718 -0.3047127 0.39091244
-0.7831947 -0.49700814 -0.47165224 0.89297277 -0.3426071 -0.84683347 -0.70795894 -0.243428
-0.1331347 -0.5677372 0.5817946 -0.6087986 -0.20502718 0.10154612 -0.3199921 -0.72493505
-0.47407958 -0.6762892 -0.37963757 -0.28946117 -0.85804987 -0.3662002 0.52303714 -0.61295897
-0.48624232 -0.98613137 0.3713341 -0.69292486 0.060640313 -0.4154644 -0.47606605 -0.15895106
0.28517947 0.002329417 -0.05338734 -0.00079421035 1.1652491 0.23113498 -0.123915 -0.5376368
-0.19566804 -0.24732171 -0.501242 -0.8563135 -1.2297982 -0.6638996 -0.7144965 -0.9077717
0.06240241 -1.2278779 -1.1880107 0.3461955 -0.42866465 -0.17273329 -0.37027308 -0.2562224
00000000: e192 c7be afdb 14bf 12f0 8abf 5850 24bf
00000010: 1e37 78bf 0c06 873e 4e03 9cbe ad25 c83e
00000020: 737f 48bf da77 febe 677c f1be dd99 643f
00000030: 336a afbe 14ca 58bf cc3c 35bf 3145 79be
00000040: 7654 08be 3a57 11bf 7ef0 143f 3ada 1bbf
00000050: a5f2 51be 6af7 cf3d 01d6 a3be 5895 39bf
00000060: 8fba f2be 4a21 2dbf db5f c2be 4134 94be
00000070: 28a9 5bbf 987e bbbe c3e5 053f e1ea 1cbf
00000080: c1f4 f8be 1b73 7cbf 811f be3e 8663 31bf
00000090: fa61 783d c0b7 d4be eebe f3be 11c4 22be
000000a0: 0b03 923e 22a9 183b afac 5abd 8e32 50ba
000000b0: e226 953f a6ae 6c3e 26c7 fdbd 91a2 09bf
000000c0: 345d 48be e741 7dbe 6551 00bf 5d37 5bbf
000000d0: 076a 9dbf 53f5 29bf 3ee9 36bf ba63 68bf
000000e0: ab99 7f3d 1a2b 9dbf bc10 98bf 8940 b13e
000000f0: ef79 dbbe ffe0 30be 6f94 bdbe 952f 83be

weight f4 [32, 64, 3, 3]
0.008887109 0.105722554 -0.21849427 -0.11621905 0.11947306 -0.14147556 0.052987006 -0.24032068
0.02570502 -0.04687424 0.24420345 -0.337432 -0.30604315 -0.37611246 -0.19516978 -0.029078057
0.022738956 0.008947268 -0.05617279 -0.14331315 -0.14765467 -0.0962842 -0.09268545 0.18918076
-0.27561012 -0.42627776 -0.037862424 -0.0888546 -0.46480474 -0.09312377 -0.11258387 -0.05228384
-0.12946326 0.0066803456 0.12117769 0.06250639 -0.18348752 -0.048331115 -0.11537358 -0.01693109
-0.008299565 0.055745106 -0.12565798 -0.022289598 -0.15631872 -0.5090241 -0.127332 -0.081599206
-0.28657508 -0.2292868 -0.27631733 -0.15653986 -0.27567908 -0.28967845 0.42458358 0.02214898
-0.25049034 -0.11170713 -0.14259322 -0.21736255 -0.006910578 -0.108926445 -0.11961579 -0.18845598
-0.09400192 -0.02457617 0.3966131 0.11923509 -0.045162152 0.45886916 0.038744308 -0.1087411
-0.1311035 0.14595473 -0.04537184 -0.0032699027 0.0816384 -0.04565918 -0.1580094 0.06868243
-0.29568663 -0.09840875 -0.32437405 -0.057712283 -0.34204125 0.06663394 0.023312131 -0.14977005
-0.13362125 -0.23270407 -0.15097107 -0.21451972 0.35683948 -0.08258336 0.28381804 -0.22248451
-0.06945913 -0.18121116 -0.32786992 -0.16045907 -0.38927287 0.056865025 -0.11027351 -0.32889786
-0.10106292 0.17792116 -0.17663603 -0.12592572 -0.23971394 -0.1798093 0.11310928 0.1455792
-0.13913406 -0.06213939 0.3129763 0.39356503 -0.03969056 -0.14782843 -0.33262533 -0.03670305
0.10409251 -0.17784274 -0.36302134 0.2320136 0.014622299 -0.09102066 -0.011632974 0.14715874
-0.20740329 -0.24425109 -0.31539428 -0.45480976 0.0654558 0.12548655 -0.11197957 0.03830913
-0.2648177 -0.3264996 0.2813594 -0.1650164 0.04912577 0.05933556 -0.35621497 0.3367917
-0.013418797 -0.15398413 0.093895085 -0.109239504 -0.12100534 -0.37698573 -0.034674708 0.25388914
-0.14303033 -0.210533 -0.1358228 0.014557478 -0.04593504 0.0100280475 -0.024427759 -0.11080421
0.18611214 0.13297981 0.009980451 -0.30910483 -0.12932807 -0.18651739 -0.3460671 -0.1775723
-0.21939707 -0.12801214 -0.107437246 0.27717093 0.15249082 0.03234276 -0.11111868 -0.33790803
0.17936249 0.44723922 0.18804596 0.03151504 -0.038435906 -0.10254093 -0.23253122 0.1743875
-0.17890856 -0.15682274 -0.19394372 -0.19602792 -0.29623172 -0.060371205 0.066413105 -0.05672673
-0.22572063 0.12502353 -0.064967535 0.0116077745 -0.28077453 -0.059229795 0.11200274 -0.046008907
0.15559241 0.022888277 -0.121147536 -0.041738495 0.23685916 -0.058443923 -0.07497879 0.121478155
-0.2571814 -0.36443982 -0.074440554 -0.3792076 -0.09454218 -0.20874743 -0.3689176 0.03590079
-0.041431304 -0.021989051 -0.03815711 -0.12374908 -0.4258284 0.0059510064 -0.23800938 -0.33554915
0.052972894 0.19785997 0.05096818 -0.49673364 -0.20880005 -0.22681463 0.013735412 -0.11733369
-0.0065669166 0.0866062 0.03516044 -0.14766228 0.022312487 -0.15224619 -0.16188933 0.042071976
0.029582564 -0.3053963 -0.19223563 0.008997152 -0.03193297 -0.15375397 -0.119407535 -0.2199281
-0.22695963 0.18158561 -0.0146109685 0.19562042 -0.044575684 -0.050024185 0.171207 -0.31315506
00000000: 3d9b 113c 1185 d83d f6bc 5fbe 4104 eebd
00000010: 4bae f43d f8de 10be e708 593d a016 76be
00000020: 5693 d23c 34ff 3fbd 7810 7a3e e3c3 acbe
00000030: b0b1 9cbe d091 c0be 96da 47be 1b35 eebc
00000040: 0c47 ba3c 9097 123c 7015 66bd afc0 12be
00000050: c932 17be a730 c5bd dfd1 bdbd 9ab8 413e
00000060: c51c 8dbe 1441 dabe a115 1bbd 67f9 b5bd
00000070: e3fa edbe adb7 bebd 5f92 e6bd 9427 56bd
00000080: 0492 04be cde6 da3b 022c f83d 5a03 803d
00000090: 27e4 3bbe d9f6 45bd fc48 ecbd 12b3 8abc
000000a0: e6fa 07bc fb54 643d 7cac 00be ad98 b6bc
000000b0: 0412 20be 674f 02bf 5263 02be 7c1d a7bd
000000c0: f8b9 92be 29ca 6abe 7779 8dbe fc4b 20be
000000d0: cf25 8dbe bc50 94be 0563 d93e c771 b53c
000000e0: 4540 80be b5c6 e4bd f503 12be 4a94 5ebe
000000f0: 2172 e2bb d414 dfbd 20f9 f4bd 9bfa 40be
00000100: 1484 c0bd f753 c9bc df10 cb3e 8731 f43d
00000110: f3fb 38bd e6f0 ea3e 5ab2 1e3d a7b3 debd
00000120: ff3f 06be 2875 153e d3d7 39bd dd4b 56bb
00000130: 0932 a73d 1f05 3bbd 37cd 21be 60a9 8c3d
00000140: 3d64 97be 878a c9bd 5b14 a6be b763 6cbd
00000150: 0820 afbe 6077 883d 15f9 be3c 525d 19be
00000160: 02d4 08be fa49 6ebe 2998 1abe 0fab 5bbe
00000170: aab3 b63e 7721 a9bd 9950 913e fbd2 63be
00000180: 9740 8ebd 6b8f 39be 91de a7be 624f 24be
00000190: c64e c7be 4deb 683d 14d7 e1bd 4d65 a8be
000001a0: 14fa cebd f730 363e 13e0 34be acf2 00be
000001b0: 9277 75be ee1f 38be d7a5 e73d b712 153e
000001c0: 2979 0ebe df85 7ebd 6e3e a03e 5b81 c93e
000001d0: 9292 22bd 5660 17be de4d aabe f055 16bd
000001e0: 742e d53d 681c 36be efdd b9be f994 6d3e
000001f0: 5e92 6f3c 0a69 babd 3b98 3ebc c8b0 163e
00000200: 8761 54be f51c 7abe 5c7b a1be d3dc e8be
00000210: b10d 863d 8c7f 003e 8b55 e5bd 09ea 1c3d
00000220: 3096 87be f52a a7be 570e 903e 0ffa 28be
00000230: 1a38 493d d809 733d cf61 b6be f66f ac3e
00000240: 84da 5bbc 04ae 1dbe 114c c03d f6b8 dfbd
00000250: a6d1 f7bd 4604 c1be 1107 0ebd c2fd 813e
00000260: 8b76 12be f695 57be 2215 0bbe 7d82 6e3c
00000270: 6126 3cbd ae4c 243c b91c c8bc 51ed e2bd
00000280: 2e94 3e3e dc2b 083e 0c85 233c fd42 9ebe
00000290: 946e 04be 6afe 3ebe b52f b1be 83d5 35be
000002a0: a0a9 60be 9d15 03be 0f08 dcbd 59e9 8d3e
000002b0: 8e26 1c3e d879 043d 3192 e3bd 4802 adbe
000002c0: cdaa 373e 8afc e43e 1f8f 403e ea15 013d
000002d0: f86e 1dbd fb00 d2bd aa1c 6ebe a392 323e
000002e0: ce33 37be 2496 20be 2f99 46be 8bbb 48be
000002f0: afab 97be cc47 77bd 9803 883d 4a5a 68bd
00000300: 4f23 67be 2b06 003e b30d 85bd 892e 3e3c
00000310: aec1 8fbe f19a 72bd b161 e53d d673 3cbd
00000320: 9e53 1f3e 3280 bb3c 331c f8bd fcf5 2abd
00000330: 358b 723e e562 6fbd 7b8e 99bd 8ac9 f83d
00000340: 48ad 83be db97 babe 4a74 98bd 8027 c2be
00000350: 559f c1bd e3c1 55be c5e2 bcbe b50c 133d
00000360: dfb3 29bd 6222 b4bc a14a 1cbd 2870 fdbd
00000370: 2e06 dabe a900 c33b bbb8 73be 19cd abbe
00000380: 1bfa 583d ce9b 4a3e 03c4 503d df53 febe
00000390: aecf 55be 1842 68be 7e0a 613c a54c f0bd
000003a0: 4a2f d7bb 975e b13d 6504 103d c834 17be
000003b0: adc8 b63c 6de6 1bbe 51c6 25be aa53 2c3d
000003c0: 2257 f23c e75c 9cbe 6bd9 44be ca68 133c
000003d0: 25cc 02bd ae71 1dbe f08b f4bd d534 61be
000003e0: 1b68 68be 94f1 393e d862 6fbc b850 483e
000003f0: fe94 36bd 29e6 4cbd e350 2f3e dc55 a0be

bias f4 [32]
-0.36594194 1.5211949 -0.04066493 -0.48196357 0.29264474 -0.4489784 -0.2458021 -0.0667955
-0.09644551 -0.5054819 0.4865513 -0.7604802 -0.45736086 0.62113124 0.18719825 0.11568314
-0.8023851 0.066482335 -0.5978606 -0.31359443 -0.026515875 -0.4037313 2.4027164 1.5138679
-0.6196803 -0.16433844 0.18967757 0.28088614 -0.5811002 0.6176024 0.30920944 -0.50936526
00000000: be5c bbbe 84b6 c23f 4590 26bd eec3 f6be
00000010: 88d5 953e 7fe0 e5be 8cb3 7bbe 14cc 88bd
00000020: 3985 c5bd 4367 01bf 411d f93e d5ae 42bf
00000030: 342b eabe 7502 1f3f e6b0 3f3e 48eb ec3d
00000040: 1c69 4dbf e427 883d 640d 19bf 738f a0be
00000050: d237 d9bc deb5 cebe 1bc6 1940 6cc6 c13f
00000060: 5ea3 1ebf 5648 28be d63a 423e 4fd0 8f3e
00000070: fcc2 14bf 311b 1e3f b350 9e3e c365 02bf

weight f4 [4, 32, 1, 1]
0.15271923 -0.24488632 0.08724842 0.12496218 0.06066287 -0.049170773 -0.22543168 0.0588029
-0.111392826 -0.06459536 -0.069136575 -0.21111439 -0.13083151 0.033206336 -0.17191269 0.14007886
-0.2020502 0.0156196095 0.04331006 0.124329254 0.091721185 -0.017089166 -0.2070981 -0.1877257
0.20553768 0.13523203 0.04576452 -0.17355055 0.02804371 -0.18117616 -0.29273343 -0.15746889
-0.12200413 -0.18081515 -0.22014181 -0.14335442 0.12933263 -0.2814042 -0.004521335 -0.057201415
0.06268155 -0.20530581 -0.18587181 -0.1682315 -0.107104085 -0.27105516 0.12966456 0.10547936
-0.19674017 0.14645356 -0.27092496 0.17954065 -0.20874032 0.18128769 -0.23205303 -0.12452841
0.021773739 -0.22626722 -0.18797304 0.09289708 -0.20758669 -0.118124336 -0.068047404 -0.14135031
-0.18562093 -0.12099619 -0.10514816 -0.055054013 -0.084099256 -0.022224838 -0.09281389 -0.19300395
-0.22772132 -0.054217607 -0.1261476 -0.065756075 0.19905515 -0.11915103 -0.07825357 -0.22389796
-0.15643075 -0.068246394 -0.12994523 -0.24438187 -0.18380824 -0.216876 -0.08299183 -0.029143803
0.15292715 -0.05677846 -0.07511536 -0.25129125 -0.21050104 -0.1445187 -0.10877495 -0.18826148
-0.1327211 0.14438283 -0.15393205 -0.08297914 -0.15485424 -0.11540632 0.08915663 -0.22160365
-0.09491227 -0.2096594 -0.06822258 -0.11460149 -0.106016405 -0.23771079 -0.1502998 -0.16520911
-0.15524516 -0.095718235 -0.10828308 -0.11398835 -0.11889225 -0.06425161 -0.06641248 0.15614069
-0.09280018 -0.04045041 -0.19955048 -0.08451926 -0.032803576 0.078126825 -0.21820536 -0.12002846
00000000: 6e62 1c3e 7bc3 7abe 4daf b23d 2cec ff3d
00000010: a179 783d 4b67 49bd 90d7 66be 4fdb 703d
00000020: ec21 e4bd 924a 84bd 7a97 8dbd 5f2e 58be
00000030: b2f8 05be 5e03 083d e109 30be d570 0f3e
00000040: 3fe6 4ebe 64e9 7f3c e465 313d 56a0 fe3d
00000050: 51d8 bb3d 94fe 8bbc 8611 54be 2a3b 40be
00000060: 7878 523e 447a 0a3e 9473 3b3d 3cb7 31be
00000070: ecbb e53c 3e86 39be 28e1 95be 863f 21be
00000080: 4ddd f9bd 9b27 39be db6c 61be 80cb 12be
00000090: c66f 043e 3614 90be b527 94bb 084c 6abd
000000a0: 2f5f 803d b03b 52be 2e55 3ebe e144 2cbe
000000b0: 6359 dbbd bec7 8abe c9c6 043e 9005 d83d
000000c0: 4176 49be ecf7 153e adb6 8abe 81d9 373e
000000d0: 06c0 55be 7ba3 393e 4f9f 6dbe c008 ffbd
000000e0: d75e b23c 98b2 67be 017c 40be d340 be3d
000000f0: 9b91 54be 2ceb f1bd 705c 8bbd 23be 10be
00000100: 6a13 3ebe dacc f7bd eb57 d7bd 5180 61bd
00000110: 3b3c acbd dd10 b6bc 3515 bebd d4a2 45be
00000120: c72f 69be 4813 5ebd d62c 01be 1fab 86bd
00000130: 1dd5 4b3e 7505 f4bd 6843 a0bd 8245 65be
00000140: 622f 20be c4c4 8bbd 5d10 05be 3e3f 7abe
00000150: 3a38 3cbe be14 5ebe 9ff7 a9bd fcbe eebc
00000160: ef98 1c3e 8890 68bd 15d6 99bd 3fa9 80be
00000170: 968d 57be b6fc 13be 67c5 debd 9ec7 40be
00000180: 0ae8 07be 18d9 133e 5da0 1dbe f8f0 a9bd
00000190: 1c92 1ebe 265a ecbd c097 b63d 11ec 62be
000001a0: 5d61 c2bd f4b0 56be 48b8 8bbd 30b4 eabd
000001b0: 211f d9bd 756a 73be 31e8 19be 942c 29be
000001c0: 96f8 1ebe ec07 c4bd 85c3 ddbd b972 e9bd
000001d0: c87d f3bd 5996 83bd 4403 88bd 58e3 1f3e
000001e0: 050e bebd 54af 25bd f656 4cbe 6f18 adbd
000001f0: 0b5d 06bd f500 a03d 3a71 5fbe 7bd1 f5bd

bias f4 [4]
0.44011396 0.6208441 0.16410913 0.12245348
00000000: 9e56 e13e a4ef 1e3f 390c 283e e4c8 fa3d

weight f4 [36, 144]
0.20890304 0.31116802 0.11345218 0.1750811 0.121506564 0.16833211 0.3225111 0.24252333
0.11586677 0.09035678 -0.05576834 0.16620626 0.28922305 0.2171501 0.059952307 -0.025078638
0.0048346794 -0.033474527 0.100198686 0.11539705 0.29163346 -0.05092592 0.27496484 0.008692483
0.103841975 -0.053217035 -0.021424996 0.03739359 0.11608061 -0.09776609 -0.117898874 0.0061899554
0.1737358 0.11517569 0.24669218 0.1495096 0.25367215 0.088410534 0.13808747 0.12576151
0.04075743 0.3066842 0.09062678 0.17242548 0.17045811 0.2973509 0.12951685 0.30018166
0.107500285 0.09833261 0.11338333 0.13475874 0.29958528 0.21238157 -0.0378402 0.14606135
0.08333574 0.08839107 0.14994366 0.20769362 0.048775416 0.11568843 0.05456416 -0.12322244
0.05726772 0.104575396 0.14692765 0.1556567 0.097736984 0.06842908 0.16777031 0.033716395
-0.09572378 0.04562794 0.080160476 -0.08466419 -0.023121053 -0.08352324 -0.05235853 0.1687903
0.11193777 0.06860039 0.093087584 0.13701677 0.10563361 0.20826592 0.06447691 0.13081148
0.1354521 -0.012757413 0.035952248 -0.034790378 0.05538278 0.005754374 0.080384456 0.14528342
0.10550569 -0.021642683 -0.11511298 -0.04187911 -0.063334435 0.11233317 0.0029975558 0.06102218
-0.084401436 -0.045168668 0.050141178 -0.004686026 -0.19109122 -0.07889769 -0.7647082 -0.32810473
0.12017106 0.24879201 -0.38289416 -0.17189655 -0.38879007 -0.10712792 0.120655686 0.00649916
-0.2749313 -0.07358875 0.095704585 0.11000457 0.24555828 0.20018804 -0.10417011 -0.008890599
0.29252845 0.09901261 0.30770928 0.21993363 0.26229072 0.23281609 0.16631033 0.11445883
0.07047216 0.23599392 0.26380527 0.0703342 0.10667275 0.041164584 0.0800373 0.17742026
0.22624409 -1.9827467 0.39359394 -0.15048523 -0.05104109 -0.21885495 0.024657119 -0.56096864
0.3666767 0.46709195 0.10240458 -0.15413024 0.07089474 0.03750565 0.17597875 -0.16599469
-0.06965724 -0.01786328 0.2590725 0.269972 0.16103214 -0.19317026 -0.19839822 0.27885652
0.3357386 -0.14921911 -0.05977028 -0.22999145 0.03714948 -0.11748246 0.19398172 0.09497008
0.09468336 -0.15901081 -0.16354226 -0.038184125 0.47197878 0.18249069 -0.27982247 0.27443737
-0.03888198 -0.019681856 0.17090827 -0.32793137 -0.6610387 -0.10248083 0.1039112 0.29962835
-0.32992896 0.2091092 0.30549926 0.016761612 0.38392982 0.20606706 0.09011425 0.18572399
0.021679766 0.100914516 -0.118942 0.28710997 0.22590835 0.020242 0.26544583 0.12575847
-0.039131872 -0.16220327 -0.074802816 0.0784888 -0.0139325 0.12182043 0.21488775 0.30299845
0.117591515 0.028821645 -0.12731934 -0.09157372 0.0105951335 0.05941715 0.0097034015 -0.14276059
-0.33829585 0.100662895 0.024837416 0.12843145 0.12963128 0.0045766556 0.2162142 0.13502797
0.13977592 0.12414753 0.016871816 -0.048554365 0.19067092 0.026090082 0.06639796 -0.02157986
0.06452901 0.2198083 0.11109827 0.04467077 -0.06973475 -0.050757527 0.052439354 -0.05943561
0.14137824 -0.051457528 0.087550506 0.12691014 -0.25489673 0.49591404 -0.61836547 0.028554194
00000000: aeea 553e 6a51 9f3e 9e59 e83d 7648 333e
00000010: 6fd8 f83d 415f 2c3e 2d20 a53e 0958 783e
00000020: 8f4b ed3d fa0c b93d 586d 64bd f931 2a3e
00000030: 0b15 943e 995c 5e3e 8d90 753d b771 cdbc
00000040: 3b6c 9e3b 961c 09bd f834 cd3d 4a55 ec3d
00000050: fb50 953e b397 50bd 31c8 8c3e eb6a 0e3c
00000060: 1aab d43d 1bfa 59bd 7983 afbc 052a 193d
00000070: acbb ed3d 9639 c8bd f774 f1bd 1cd5 ca3b
00000080: cce7 313e 3be1 eb3d e09c 7c3e 0b19 193e
00000090: 51e1 813e 9510 b53d cd66 0d3e a0c7 003e
000000a0: 43f1 263d b605 9d3e 899a b93d 4e90 303e
000000b0: 928c 2e3e 613e 983e 11a0 043e 69b1 993e
000000c0: 1c29 dc3d 9c62 c93d 8535 e83d 32fe 093e
000000d0: 3e63 993e 8e7a 593e 53fe 1abd 1b91 153e
000000e0: eeab aa3d 6106 b53d d58a 193e a3ad 543e
000000f0: bbc8 473d 0eee ec3d ab7e 5f3d 0c5c fcbd
00000100: 8f91 6a3d a02b d63d 3474 163e 7864 1f3e
00000110: 542a c83d 8c24 8c3d fbcb 2b3e 341a 0a3d
00000120: d40a c4bd 5de4 3a3d 2d2b a43d 6b64 adbd
00000130: 5d68 bdbc 3c0e abbd e675 56bd 5dd7 2c3e
00000140: a13f e53d 5c7e 8c3d b4a4 be3d 204e 0c3e
00000150: 6f56 d83d a943 553e 780c 843d 72f3 053e
00000160: f5b3 0a3e 7804 51bc aa42 133d 5b80 0ebd
00000170: 0ed9 623d 308f bc3b 9ba0 a43d 2dc5 143e
00000180: 5e13 d83d ff4b b1bc 5bc0 ebbd 6e89 2bbd
00000190: 7cb5 81bd ef0e e63d a472 443b 65f2 793d
000001a0: a9da acbd c802 39bd d660 4d3d 3c8d 99bb
000001b0: 6bad 43be 1d95 a1bd ebc3 43bf 58fd a7be
000001c0: 3f1c f63d 55c3 7e3e b40a c4be a605 30be
000001d0: 7e0f c7be e265 dbbd 541a f73d e8f6 d43b
000001e0: ccc3 8cbe b3b5 96bd c400 c43d 134a e13d
000001f0: a173 7b3e 18fe 4c3e 2357 d5bd e0a9 11bc
00000200: 4ac6 953e 20c7 ca3d 128c 9d3e 4836 613e
00000210: f84a 863e 5767 6e3e 414d 2a3e 6469 ea3d
00000220: b553 903d 64a8 713e 7c11 873e 610b 903d
00000230: 3e77 da3d 329c 283d 99ea a33d a8ad 353e
00000240: 88ac 673e a5ca fdbf 2585 c93e cd18 1abe
00000250: 7610 51bd 831b 60be bafd c93c a49b 0fbf
00000260: 0cbd bb3e ad26 ef3e 7eb9 d13d 51d4 1dbe
00000270: 4331 913d 869f 193d c633 343e 83fa 29be
00000280: 74a8 8ebd 0356 92bc 27a5 843e c539 8a3e
00000290: 9ce5 243e 6dce 45be e728 4bbe 48c6 8e3e
000002a0: eee5 ab3e e5cc 18be aed1 74bd e182 6bbe
000002b0: 0e2a 183d a59a f0bd 25a3 463e ac7f c23d
000002c0: 59e9 c13d bbd3 22be 9f77 27be f566 1cbd
000002d0: 34a7 f13e d7de 3a3e e444 8fbe 0e83 8c3e
000002e0: b642 1fbd d83b a1bc 9402 2f3e 9fe6 a7be
000002f0: d539 29bf 78e1 d1bd 65cf d43d e368 993e
00000300: 73ec a8be b920 563e 666a 9c3e a64f 893c
00000310: 7392 c43e 3e03 533e d28d b83d 6e2e 3e3e
00000320: c499 b13c 45ac ce3d dd97 f3bd 1400 933e
00000330: 8554 673e 8dd2 a53c 84e8 873e d4c6 003e
00000340: be48 20bd 9d18 26be 3832 99bd bcbe a03d
00000350: 2445 64bc fd7c f93d 890b 5c3e 9d22 9b3e
00000360: d2d3 f03d 5f1b ec3c 0060 02be 018b bbbd
00000370: 3697 2d3c 665f 733d 04fb 1e3c d52f 12be
00000380: 1d35 adbe 5928 ce3d d677 cb3c 8983 033e
00000390: 10be 043e c5f7 953b 4167 5d3e c644 0a3e
000003a0: 6b21 0f3e 0f41 fe3d c336 8a3c f1e0 46bd
000003b0: 3d3f 433e deba d53c a7fb 873d 3fc8 b0bc
000003c0: c927 843d 6d15 613e 7d87 e33d b3f8 363d
000003d0: 18d1 8ebd 20e7 4fbd a6ca 563d c172 73bd
000003e0: 75c5 103e 21c5 52bd ae4d b33d bbf4 013e
000003f0: d381 82be 72e8 fd3e 334d 1ebf 7cea e93c

bias f4 [36]
1.3071557 -0.07054991 0.20763119 -0.037977073 -0.19539301 -0.28083557 -0.20801808 -0.4205354
0.035487432 0.11276183 -0.30392528 -0.29329997 1.0783932 0.29076603 0.90168715 -0.083086476
-0.0044272617 -0.22382562 -0.02757544 -0.05734382 0.5460058 -0.19201657 0.2503129 -0.44140154
-0.10258186 -0.5181164 0.12622961 0.21601194 0.8866487 -0.37613785 -0.27974018 -0.13887939
-0.29339418 -0.29510257 -0.35402843 -0.40120903
00000000: e150 a73f 797c 90bd 459d 543e d98d 1bbd
00000010: 1b15 48be aec9 8fbe b102 55be 6a50 d7be
00000020: 455b 113d adef e63d 189c 9bbe 6a2b 96be
00000030: ca08 8a3f 49df 943e f8d4 663f 3e29 aabd
00000040: 9012 91bb 8b32 65be e4e5 e1bc 5ae1 6abd
00000050: 09c7 0b3f fe9f 44be 0329 803e 62ff e1be
00000060: 7016 d2bd 47a3 04bf 5642 013e 3c32 5d3e
00000070: 69fb 623f 2495 c0be 1b3a 8fbe 6636 0ebe
00000080: c337 96be af17 97be 3743 b5be 456b cdbe
